dqn_checkpoint.pth (torch, 29727 bytes, 6 tensors)

fc1.weight f4 [64, 37]
0	0xbcf40986	-0.029789697
1	0xbc647e91	-0.013946191
2	0xbe14aa80	-0.14518166
3	0x3d9a0073	0.07519617
4	0xbce2bffe	-0.02767944
5	0x3d8539c0	0.065051556
6	0xbd022476	-0.031773053
7	0x3e92ca96	0.28670186
8	0xbccbab62	-0.024861995
9	0xbe81c65a	-0.25346643
10	0xbda4c23b	-0.08044859
11	0xbd1db30c	-0.03850083
12	0xbd8ca561	-0.06867481
13	0xbdd8ccfb	-0.10585972
14	0xbd14f2f8	-0.036364526
15	0x3cd1032d	0.02551421
16	0xbd015ad2	-0.031580754
17	0x3e1a573c	0.1507234
18	0x3e0d428b	0.13794915
19	0xbcc91a76	-0.02454875
20	0x3e29e2ff	0.16590498
21	0x3e39c7ea	0.18142667
22	0xbdbc821e	-0.092045054
23	0xbc12c76e	-0.008958681
24	0xbcc26298	-0.023728654
25	0xbda5c090	-0.08093369
26	0x3ead3712	0.33831078
27	0xbdc4856d	-0.095957614
28	0xbdf62fb4	-0.120208174
29	0xbdb58e2d	-0.088650085
30	0x3d1b7a26	0.037958287
31	0x3e0246da	0.1272234
32	0x3c4096d9	0.011754715
33	0xbecd5500	-0.40103912
34	0xbec183b1	-0.37795785
35	0xbe0947fa	-0.13406363
36	0xbb455d96	-0.0030115596
37	0x3e82e6ed	0.25566807
38	0x3d117895	0.035515387
39	0xbd19bcee	-0.037533693
40	0x3dcee405	0.10102085
41	0xbed0e28a	-0.40797836
42	0x3da886d2	0.0822884
43	0xbe831ccf	-0.25607917
44	0x3d0a1693	0.033712935
45	0xbe168772	-0.14700106
46	0xbe7df916	-0.2480205
47	0x3db77822	0.089584604
48	0xbd352626	-0.044225834
49	0x3cd866e6	0.026416253
50	0x3e9021ed	0.28150883
51	0x3e91cdde	0.28477377
52	0x3cacc154	0.02108828
53	0x3ce85f29	0.028365688
54	0x3d1ac05b	0.0377811
55	0x3e802e02	0.250351
56	0x3e001e95	0.12511666
57	0xbe03b4f6	-0.12862
58	0xbdaa6feb	-0.08322128
59	0xbde3aac0	-0.11116552
60	0x3e3d8c47	0.18510543
61	0x3d1e90e5	0.0387124
62	0xbd26ef8c	-0.040755793
63	0x3dc56d0b	0.09639939
64	0x3d666cd0	0.056256115
65	0xbdfdece4	-0.12398699
66	0xbe6685fe	-0.22512051
67	0x3d9ae267	0.07562714
68	0x3e2968a0	0.16543818
69	0x3d881133	0.066439055
70	0x3d89fd2c	0.06737742
71	0x3dd57f82	0.10424711
72	0x3d58c359	0.052920673
73	0x3c97d516	0.018534224
74	0xbe0dd63a	-0.13851252
75	0x3e2bf117	0.16791187
76	0x3e896702	0.268364
77	0x3e2012db	0.15632193
78	0x3e109357	0.14118706
79	0xbec46301	-0.38356784
80	0x3dd0700b	0.101776205
81	0x3ea1fd63	0.3163863
82	0x3dc75ca3	0.09734466
83	0x3c13e78f	0.009027376
84	0x3e463c75	0.19359
85	0x3c2d152a	0.010564128
86	0xbd8c5b95	-0.068534054
87	0xbd9bc120	-0.07605195
88	0xbe0add20	-0.13560915
89	0xbe01f196	-0.12689814
90	0x3e5811a8	0.21100485
91	0x3dd86f04	0.105680496
92	0x3af633d1	0.0018783753
93	0x3e2460dc	0.16052574
94	0xbd272e04	-0.04081537
95	0xbdfa7f49	-0.12231309
96	0x3dd9a2e6	0.106267735
97	0xbd5db12a	-0.054124035
98	0x3c2668f7	0.0101568615
99	0xbcbfcaf1	-0.0234122
100	0x3db66d48	0.089075625
101	0x3e0c523b	0.13703243
102	0xbdd4e700	-0.10395622
103	0xbe7b4550	-0.2453816
104	0xbe6a05bb	-0.22853749
105	0x3d8e3e1b	0.069454394
106	0xbca8db5e	-0.020612415
107	0xbc11c09d	-0.00889602
108	0x3e1625fd	0.14662929
109	0x3d554972	0.052071996
110	0x3b335dea	0.002736921
111	0xba5f5ed7	-0.0008520907
112	0xbe69293f	-0.2276964
113	0x3e821fe8	0.25414968
114	0xbddeb4c2	-0.108743206
115	0xbf17f3b6	-0.5935625
116	0xbe307705	-0.17232902
117	0x3dc24a89	0.09486873
118	0x3d3a3ec8	0.04547003
119	0x3dd5dc9b	0.10442468
120	0xbee48742	-0.44634444
121	0x3ca83821	0.020534577
122	0x3d76f142	0.060288675
123	0xbb452385	-0.0030080986
124	0xbef524f2	-0.4787975
125	0xbdba724f	-0.09103834
126	0xbd8dc8a2	-0.06923033
127	0xbcf4e859	-0.029895948
128	0xbe223fcd	-0.1584465
129	0xbe5ad613	-0.21370725
130	0xbefbe9d1	-0.49201825
131	0x3cb06a30	0.02153501
132	0xbd15d2bc	-0.036577925
133	0xbd951129	-0.07278664
134	0x3c34705b	0.011013116
135	0xbeba8110	-0.36426592
136	0xbdc18792	-0.09449686
137	0xbe2b3ae4	-0.16721684
138	0x3cea12e4	0.02857346
139	0x3e50e5ed	0.2040021
140	0xbea875f6	-0.32902497
141	0x3dfeba0d	0.1243783
142	0x3e1a5e79	0.15075101
143	0x3d1b53f2	0.037921853
144	0xbebe5510	-0.37174273
145	0xbe7bd1dc	-0.24591774
146	0x3e50e951	0.20401503
147	0x3b05dd6d	0.002042617
148	0xbdfd8da1	-0.12380529
149	0xbeb93b4b	-0.3617805
150	0xbe694f5a	-0.22784176
151	0x3d5add85	0.053433914
152	0x3e5aca78	0.21366298
153	0xbdc13105	-0.09433178
154	0x3dbe379a	0.09287949
155	0x3c2dcaf8	0.010607474
156	0xbc57ff6d	-0.013183457
157	0x3ca15da2	0.019697968
158	0xbe1b61fe	-0.151741
159	0xbb95b255	-0.004568378
160	0xbe43d2ba	-0.19123355
161	0x3b27abdf	0.002558462
162	0xbe593132	-0.21210173
163	0xbc28510f	-0.010273232
164	0xbe5f1455	-0.217851
165	0xbe245cf4	-0.16051084
166	0xbe23507e	-0.15948674
167	0x3e185761	0.14877082
168	0xbe613e39	-0.21996392
169	0x3cbd8c72	0.023138259
170	0xbd47ba41	-0.04876161
171	0x3c60e572	0.013726579
172	0xbdb17291	-0.0866443
173	0x3d055514	0.03255184
174	0xbea793e0	-0.32730007
175	0x3d8663e7	0.065620236
176	0xbd673baf	-0.056453403
177	0x3c6929a6	0.014231121
178	0x3c573edd	0.013137546
179	0xbd09edb4	-0.033673957
180	0xbd03903d	-0.03211998
181	0xbd9ec70a	-0.077528074
182	0x3eb3704d	0.35046616
183	0xbbc53658	-0.006018441
184	0x3d58b3e3	0.05290593
185	0xbe235ac6	-0.15952596
186	0xbd9e0cf8	-0.07717317
187	0x3d9400bb	0.07226702
188	0xbd0f310e	-0.03495889
189	0x3eb38a1a	0.350663
190	0x3d5a4b6a	0.053294577
191	0x3e5ce6dd	0.21572442
192	0xbcad3e35	-0.021147827
193	0xbe21dd00	-0.15806961
194	0xbf1b00a3	-0.60547847
195	0xbe802eeb	-0.25035796
196	0xbd1239c0	-0.035699606
197	0x3b9679a2	0.0045921365
198	0xbdbf1c3c	-0.09331557
199	0xbe329d34	-0.1744278
200	0x3ccdda24	0.025128432
201	0x3ddfcb5a	0.10927458
202	0xbe6154fb	-0.22005074
203	0x3ce4374b	0.027858397
204	0xbdcabceb	-0.098993145
205	0x3db19d70	0.08672607
206	0xbe7cafc5	-0.24676426
207	0x3e27cdac	0.16387051
208	0x3d55e721	0.052222375
209	0x3da09e49	0.078426905
210	0xbe0f5b9c	-0.1399979
211	0xbc5f43a6	-0.0136269685
212	0xbd9507df	-0.07276892
213	0x3e2301c6	0.15918645
214	0xbd820dd7	-0.06350296
215	0xbd19330e	-0.037402205
216	0xbe0fa3be	-0.14027306
217	0xbe06454f	-0.13112377
218	0x3e2e3787	0.1701337
219	0xbdc7327a	-0.097264245
220	0x3d490b7c	0.049083218
221	0x3cebc79e	0.028781708
222	0x3da085b8	0.07838005
223	0xbdd7587d	-0.10514925
224	0xbcf159c6	-0.029461753
225	0xbcd962d1	-0.026536377
226	0xbe629cd1	-0.22130133
227	0xbd944af5	-0.072408594
228	0x3df2dec9	0.11858899
229	0xbdcbc19b	-0.09949037
230	0x3ba40790	0.0050057843
231	0x3e03a180	0.12854576
232	0x3b865aef	0.0041001956
233	0x3e4fb516	0.20283923
234	0x3dcc1b32	0.099661246
235	0xbd7e2582	-0.06204749
236	0x3dbc15a0	0.09183812
237	0xbb387762	-0.002814733
238	0x3c1c418c	0.009537112
239	0xbde9060e	-0.11378108
240	0x3d736cd7	0.05942997
241	0xbe6bb14c	-0.23016852
242	0xbde05f3f	-0.10955667
243	0x3d533fa3	0.05157436
244	0x3e03e37b	0.12879746
245	0xbe4da52f	-0.20082544
246	0x3eba7c3d	0.3642291
247	0xbef03e85	-0.469227
248	0x3e53529c	0.20636982
249	0x3da292a1	0.079381235
250	0xbd2c9079	-0.042129967
251	0xbc909f4d	-0.017654086
252	0x3d0eaf02	0.03483487
253	0x3ded1b30	0.11577451
254	0xbded4f94	-0.11587444
255	0x3cbee403	0.023302084

fc1.bias f4 [64]
0	0x3e1de30e	0.15418646
1	0x3c82157c	0.015879385
2	0xbdfa5055	-0.12222353
3	0xbde24b17	-0.110494785
4	0x3d9e6649	0.07734353
5	0xbdd6d431	-0.10489691
6	0xbd4254ed	-0.047444273
7	0x3dfceb35	0.1234955
8	0xbcebae99	-0.028769778
9	0xbe4b33e1	-0.19844009
10	0x3e17a409	0.14808668
11	0x3e4d2f1f	0.20037507
12	0x3e5798e9	0.21054424
13	0x3e20cc98	0.15703046
14	0xbd0ef3f4	-0.03490062
15	0xbdae19f6	-0.085010454
16	0x3dc23130	0.09482038
17	0x3d99b3b3	0.07504978
18	0x3c8a4136	0.016876798
19	0xbe146ebc	-0.14495367
20	0xbe17edf5	-0.14836867
21	0x3dd900ca	0.105958536
22	0x3cb08ff4	0.021553017
23	0xbd8ec8c9	-0.069718905
24	0xbddde175	-0.10834018
25	0x3c9b484c	0.018955372
26	0x3ce22122	0.02760369
27	0xbe392e1f	-0.18084
28	0x3e07b10e	0.13251135
29	0x3d801d91	0.06255639
30	0xbdbbf852	-0.09178223
31	0xbe3f3e9b	-0.18676226
32	0x3e12dfe4	0.1434322
33	0x3d2c1668	0.042013556
34	0xbdadaffc	-0.08480832
35	0x3d99dcd2	0.07512821
36	0xbd77a4e2	-0.06045998
37	0x3d989dc1	0.07451964
38	0xbb2907ef	-0.0025792082
39	0xbd410628	-0.04712501
40	0xbc9e3a77	-0.019314988
41	0x3cf70280	0.03015256
42	0xbd67497b	-0.05646656
43	0x3e20f735	0.15719302
44	0x3d40b140	0.04704404
45	0xbdc6f748	-0.09715134
46	0xbcf7406b	-0.030182084
47	0xbe1a72ec	-0.15082902
48	0xbdc11fe6	-0.09429912
49	0xbcb79662	-0.022410575
50	0xbd88555b	-0.06656905
51	0x3e0bbbfa	0.13645926
52	0xbd07c61f	-0.033147927
53	0xbc9a5253	-0.018838083
54	0xbe18d579	-0.14925183
55	0x3d8a911c	0.06765959
56	0x3dedcde8	0.11611539
57	0xbdebfae4	-0.11522463
58	0xbd826154	-0.0636622
59	0xbde458b9	-0.11149735
60	0x3b098e2f	0.002098929
61	0x3da2c765	0.07948188
62	0x3de65bf1	0.11248005
63	0xbbcdee60	-0.00628452

fc2.weight f4 [64, 64]
0	0xbec9efa5	-0.39440647
1	0xbece95fa	-0.40348798
2	0x3e34d92a	0.17660967
3	0x3d411d36	0.047147
4	0x3e6183fe	0.22023007
5	0xbd0f00b0	-0.034912765
6	0xbe687858	-0.22702157
7	0x3d2b73b3	0.041858386
8	0x3db17bc5	0.08666185
9	0xbd9a9376	-0.07547657
10	0x3dd4e591	0.10395349
11	0xbe7540e3	-0.23950534
12	0xbda03371	-0.07822312
13	0xbdf11fc1	-0.11773635
14	0xbe3c3595	-0.18379815
15	0x3d4a3154	0.04936345
16	0xbed24dc8	-0.41074967
17	0xbe864f23	-0.26232252
18	0xbc5bbff2	-0.013412463
19	0x3e1a4eab	0.15069072
20	0xbc1a1dae	-0.00940649
21	0xbe9b953f	-0.30387303
22	0xbe5cdc80	-0.21568489
23	0x3e24c3e6	0.16090354
24	0xbe54ebd0	-0.2079308
25	0x3e12d5da	0.1433939
26	0x3e401fed	0.18762179
27	0x3d9772ee	0.07394968
28	0xbd96cb5a	-0.07363005
29	0xbdd46a5d	-0.1037185
30	0xbda72278	-0.08160871
31	0x3e4019d5	0.18759854
32	0xbec765ef	-0.38944957
33	0x3e76d8de	0.24106166
34	0x3e4a45ef	0.1975324
35	0xbc9b10e1	-0.018928947
36	0xbd3f7b5d	-0.046748508
37	0xbd971c4a	-0.073784426
38	0x3e29fa08	0.16599286
39	0xbc652e70	-0.013988122
40	0xbc7e67fa	-0.01552772
41	0xbbd952f4	-0.0066322032
42	0x3db1ee31	0.086880095
43	0xbda23e60	-0.07922053
44	0x3e8e1a5e	0.27754492
45	0xbeba1887	-0.36346838
46	0xbe2eb81a	-0.17062417
47	0x3d70aab8	0.05875656
48	0xbea6e8fa	-0.32599622
49	0x3e35432a	0.17701402
50	0xbe8a2942	-0.26984602
51	0xbe8799be	-0.26484483
52	0xbe7b6b8e	-0.24552748
53	0xbeb14c64	-0.34628594
54	0xbe902c61	-0.28158858
55	0xbe01dd20	-0.12682009
56	0xbe84160e	-0.25798076
57	0x3d96664f	0.073437326
58	0xbe95c417	-0.29251167
59	0x3d5cd014	0.053909376
60	0x3da33a12	0.079700604
61	0x3e287b04	0.16453177
62	0xbdf058a0	-0.11735654
63	0xbea55480	-0.3229103
64	0x3d99c93f	0.07509088
65	0x3dd8045d	0.10547707
66	0xbe2433e9	-0.16035427
67	0x3d26838c	0.040652797
68	0x3bfe7d56	0.007766406
69	0x3e169cf4	0.1470831
70	0xbdf1ef59	-0.1181323
71	0x3ce17ad6	0.027524393
72	0xbcd0ca62	-0.025487129
73	0xbe7d3057	-0.24725471
74	0xbc381ef4	-0.011237849
75	0x3ec3acc6	0.38217753
76	0xbde87494	-0.113503605
77	0x3e07892b	0.13235919
78	0x3d8c8e65	0.06863097
79	0x3d223697	0.039602842
80	0x3c8aba46	0.016934525
81	0xbdaeb4b8	-0.08530563
82	0xbe3a5260	-0.18195486
83	0xbb9a18c2	-0.0047026584
84	0x3d0d6bb0	0.034526527
85	0xbe444498	-0.19166791
86	0x3ec60c73	0.38681373
87	0xbe2dc81f	-0.16970871
88	0xbc619ee0	-0.013770789
89	0xbca5d092	-0.020241056
90	0xbe920084	-0.28516018
91	0xbe802e37	-0.2503526
92	0xbc88268c	-0.016619943
93	0x3e0676df	0.13131283
94	0x3e1b9ba5	0.15196092
95	0xbd5109aa	-0.051034607
96	0xbe0d4d8e	-0.13799116
97	0xbd9c12b8	-0.07620758
98	0xbdeb1394	-0.114783436
99	0xbe8ad2db	-0.27113995
100	0xbe07004c	-0.13183707
101	0x3d78eb35	0.060771186
102	0x3bd1a3e6	0.006397712
103	0xbcba6bfd	-0.022756571
104	0xbe482b23	-0.19547705
105	0x3e66252e	0.2247512
106	0x3df13c68	0.117791
107	0xbcce8d67	-0.02521391
108	0xbdb4c2f4	-0.08826247
109	0xbe009b6e	-0.12559292
110	0xbe035058	-0.12823617
111	0x3da99c6a	0.08281787
112	0xbd747c37	-0.059688773
113	0x3d770816	0.060310446
114	0xbda67602	-0.08127977
115	0x3e3fcf50	0.18731427
116	0xbda5900c	-0.080841154
117	0xbc9b8051	-0.018982084
118	0xbab75454	-0.0013986924
119	0xbe3e2f0f	-0.18572639
120	0xbdcd93ce	-0.10037957
121	0xbe0dd401	-0.13850404
122	0x3e553506	0.20821008
123	0x3d1e03b1	0.03857774
124	0xbe723d16	-0.23656115
125	0xbd94230f	-0.072332494
126	0x3d3b8582	0.04578162
127	0xbd461b1b	-0.048365694
128	0xbe4789dd	-0.19486184
129	0x3ca6680a	0.020313282
130	0xbe1ce012	-0.15319851
131	0x3de0f67d	0.10984514
132	0x3dad5cc5	0.0846496
133	0x3e39faaa	0.18162027
134	0xbc0b4c94	-0.008502144
135	0xbda08cc6	-0.078393504
136	0x3e5e580e	0.21713278
137	0xbe2dfca8	-0.16990912
138	0xbd4e7bc4	-0.050411
139	0x3e069e46	0.13146314
140	0xbdc8810a	-0.09790237
141	0x3dd854ad	0.105630256
142	0xbe09107c	-0.13385195
143	0xbe615bdf	-0.22007702
144	0xbe051ee0	-0.13000059
145	0x3e229b1f	0.15879487
146	0x3e0155d2	0.12630394
147	0xbec78da7	-0.3897526
148	0xbd1ed5b1	-0.03877801
149	0x3e18cad4	0.14921123
150	0x3d52e313	0.051486086
151	0x3e03a6a1	0.12856533
152	0x3da46520	0.080271006
153	0x3e471835	0.19442828
154	0xbe757f56	-0.23974356
155	0xbc880f3d	-0.016608829
156	0x3d657282	0.056017406
157	0x3d9b8831	0.07594336
158	0x3df50a22	0.11964823
159	0xbd3f6941	-0.046731237
160	0xbe716f3b	-0.23577587
161	0xbeb693a4	-0.35659516
162	0xbddaa8f4	-0.106767565
163	0xbdbb7a79	-0.09154219
164	0xbd159653	-0.036520313
165	0x3db1c94e	0.08680974
166	0x3b4e5d86	0.003148885
167	0xbe7eeb9d	-0.24894567
168	0x3e30ebfc	0.17277521
169	0xbdc02ace	-0.09383164
170	0xbc4115ad	-0.011784953
171	0xbe849050	-0.25891352
172	0xbd5d3152	-0.054002114
173	0xbe73b600	-0.23799896
174	0xbd38a8fb	-0.045083027
175	0xbe3d8246	-0.18506727
176	0xbe0c5bcb	-0.13706891
177	0xbda9e449	-0.08295495
178	0xbcf3904b	-0.02973189
179	0x3e113f4b	0.141843
180	0xbe911233	-0.28334197
181	0x3e9fd537	0.31217358
182	0xbe64b1dd	-0.22333474
183	0xbd2264aa	-0.039646782
184	0xbdc751e1	-0.09732414
185	0x3d94f0c5	0.07272486
186	0x3e617012	0.22015408
187	0xbde30a5b	-0.110859595
188	0xbcc9ad15	-0.024618665
189	0x3d9f72da	0.07785578
190	0xbdf8d639	-0.12150235
191	0x3d8f6c53	0.07003083
192	0xbd92cda3	-0.07168128
193	0xbe8b8b70	-0.2725482
194	0x3d1590bd	0.036514986
195	0xbf055479	-0.5208202
196	0xbd4cb5e6	-0.04997816
197	0xbd486926	-0.048928402
198	0xbd6daabe	-0.05802416
199	0xbce8e632	-0.028430078
200	0xbe2027cb	-0.1564018
201	0xbc92124f	-0.017830996
202	0x39283df4	0.00016044808
203	0xbb528eb7	-0.0032128522
204	0xbdcdaa83	-0.10042288
205	0xbadf544a	-0.001703867
206	0x3e53dc9d	0.20689626
207	0x3bf81298	0.007570576
208	0xbe13fa04	-0.14450842
209	0xbe6701a8	-0.22559226
210	0xbdbac746	-0.0912004
211	0xbda72080	-0.08160496
212	0x3d0cda1b	0.03438769
213	0xbe85c73f	-0.26128575
214	0xbd8f1081	-0.0698557
215	0x3dd1fd45	0.102533855
216	0x3d360a87	0.044443633
217	0xbd9ba60e	-0.07600032
218	0x3e33daec	0.17563981
219	0xbdda5303	-0.106603645
220	0xbdba7899	-0.091050334
221	0xbe1a7549	-0.15083803
222	0xbe5975d9	-0.21236362
223	0x3d62abe6	0.055339716
224	0x3e08041c	0.13282818
225	0x3e47b53b	0.19502728
226	0x3e873d3e	0.26413912
227	0x3e2f8b9e	0.17143103
228	0xbea1a71c	-0.31572807
229	0xbb025467	-0.0019886733
230	0x3f0debf6	0.5543817
231	0x3d5eb9dc	0.054376468
232	0xbd9f9be4	-0.07793406
233	0x3e0422bc	0.12903875
234	0x3ecd82e1	0.40138915
235	0xbe3c1b85	-0.18369873
236	0xbd3cd51f	-0.046101686
237	0x3e237a71	0.15964676
238	0x3d3aa2d9	0.04556546
239	0x3e4588ba	0.19290438
240	0x3dcd6e9a	0.10030861
241	0xbe83b913	-0.25727138
242	0xbe69969f	-0.22811364
243	0xbe0f4e6c	-0.1399476
244	0x3e0b5ec6	0.13610372
245	0xbe17c8e5	-0.14822729
246	0xbe41ce6f	-0.18926404
247	0x3d098edb	0.033583503
248	0xbe5b86cc	-0.2143814
249	0xbb97d506	-0.0046335487
250	0xbe08ac08	-0.13346875
251	0x3d975030	0.073883414
252	0xbe1f55c3	-0.15560059
253	0xbd0b4937	-0.03400537
254	0x3cc4fc42	0.024046067
255	0xbeb482f7	-0.35256168

fc2.bias f4 [64]
0	0x3d4ffa25	0.050775666
1	0xbb9e8bdc	-0.00483845
2	0xbcd9b095	-0.026573459
3	0x3c408b37	0.011751941
4	0x3e488251	0.19580962
5	0x3de02421	0.10944391
6	0xbcc6f97f	-0.02428889
7	0x3dc787d9	0.09742708
8	0x3e475448	0.19465744
9	0x3ec787dd	0.38970843
10	0xbdf7312e	-0.12069927
11	0x3e367010	0.17816186
12	0x3e12049e	0.14259574
13	0xbd6b9479	-0.05751464
14	0xbdbb76a3	-0.091534875
15	0x3e1c3ab8	0.15256774
16	0xbcc2bc93	-0.02377156
17	0xbaab144c	-0.0013052314
18	0xbd4dbaed	-0.050227094
19	0x3df8540b	0.12125405
20	0x3e2fa3ca	0.17152324
21	0x3ee8c32a	0.45461398
22	0xbe3d7274	-0.18500692
23	0xbdc7342d	-0.097267486
24	0xbdb3986b	-0.08769306
25	0xbd236446	-0.03989055
26	0x3e04b3d3	0.12959222
27	0xbde1f514	-0.11033073
28	0xbcea6304	-0.028611667
29	0x3e12309d	0.14276357
30	0x3d81b674	0.06333628
31	0xbd146ad8	-0.036234707
32	0x3d9d19f5	0.076709665
33	0x3d890485	0.06690315
34	0x3d31c3a8	0.043399483
35	0xbd0b52df	-0.03401458
36	0xbd6e218e	-0.05813747
37	0xbdec9378	-0.11551565
38	0xbba0d9f9	-0.004908797
39	0xbd1c3973	-0.038140725
40	0xbe3e7b84	-0.18601805
41	0x3ee7b244	0.45253193
42	0x3ea24fa8	0.31701398
43	0xbd39d058	-0.045364708
44	0x3cbab5d0	0.022791773
45	0xbdeb95d2	-0.11503185
46	0x3e7c6e5e	0.24651477
47	0xbd8c2f85	-0.06845001
48	0x3cc697bb	0.024242273
49	0xbe031fee	-0.12805149
50	0xbdd982ae	-0.10620628
51	0x3ec51824	0.3849498
52	0xbda0d401	-0.078529365
53	0xbdeb8cc0	-0.11501455
54	0x3da8c2cd	0.0824028
55	0xbd934deb	-0.07192596
56	0xbe09b3ec	-0.13447541
57	0xbe1aebd9	-0.15129031
58	0xbc47d240	-0.012196124
59	0xbd18811b	-0.0372325
60	0x3cf05053	0.029335177
61	0x3e63d80a	0.22250381
62	0x3db2b93f	0.08726739
63	0xbdf5bc33	-0.11998787

fc3.weight f4 [4, 64]
0	0x3dbcaaec	0.09212288
1	0x3e62ac83	0.2213612
2	0xbdf5656f	-0.119822375
3	0x3e0ed2b9	0.13947572
4	0x3e0e805b	0.13916151
5	0x3dff974c	0.124800295
6	0x3ef081b0	0.46973944
7	0xbe79f588	-0.24410069
8	0x3e3f38d9	0.1867403
9	0x3df3ec03	0.1191025
10	0xbe390b38	-0.18070686
11	0xbdb1c7dd	-0.08680699
12	0x3d50a584	0.050939098
13	0x3c7f558f	0.015584364
14	0xbd08b279	-0.03337333
15	0x3e54fe9f	0.20800255
16	0x3d936e3d	0.07198761
17	0x3e0077ec	0.12545747
18	0xbc42b100	-0.01188302
19	0x3e49ca60	0.19706106
20	0x3db25ee0	0.08709502
21	0x3e05b70e	0.13058111
22	0xbadb7c31	-0.0016745386
23	0xbd092369	-0.033481035
24	0xbe850602	-0.25981146
25	0xbe844ab9	-0.2583826
26	0xbe9ed899	-0.31024626
27	0xbca99b88	-0.020704046
28	0x3d4a46da	0.049383976
29	0x3e7373a6	0.23774585
30	0xbecb140f	-0.3966374
31	0x3dd1f727	0.10252219
32	0xbc124a4f	-0.008928849
33	0x3f153b1e	0.5829333
34	0x3dc67946	0.096911
35	0x3dd663a2	0.10468222
36	0x3d861845	0.06547598
37	0xbd670ec3	-0.056410562
38	0xbe13f662	-0.14449456
39	0x3c760ef8	0.015018217
40	0x3d63c854	0.05561097
41	0x3e06fabc	0.13181585
42	0x3e125474	0.14290029
43	0xbe323bff	-0.17405699
44	0x3efee60c	0.49784887
45	0xbdde7979	-0.10863013
46	0x3e4e82de	0.2016711
47	0x3dd5e034	0.10443154
48	0xbe29d29a	-0.16584244
49	0x3cfcc4cd	0.03085556
50	0x3d9f454b	0.077768885
51	0x3e0599c3	0.13046937
52	0x3ac1130e	0.001473041
53	0x3df342cb	0.11877974
54	0x3d5bab60	0.053630233
55	0x3d4d6be8	0.050151736
56	0xbec479ca	-0.38374168
57	0xbcea2ccc	-0.028585814
58	0xbd2a50b2	-0.041580863
59	0x3e52094c	0.20511359
60	0xbec8b49e	-0.392003
61	0x3e1423ac	0.14466733
62	0x3e64e708	0.22353756
63	0x3da04e1e	0.078274
64	0x3ed2d03b	0.41174492
65	0x3e58ba12	0.2116473
66	0xbe010dee	-0.1260297
67	0x3edea76a	0.43487102
68	0x3e1a791b	0.1508526
69	0x3e0694b8	0.13142669
70	0x3eb1113a	0.34583455
71	0xbccce6d0	-0.025012404
72	0x3e1bd9a0	0.15219736
73	0x3e09ef62	0.13470224
74	0xbdb982fa	-0.09058185
75	0xbc24469f	-0.010026603
76	0x3b378ff7	0.0028009394
77	0x3e9f4a19	0.3111122
78	0xbb9f65b6	-0.00486442
79	0x3e7dbf22	0.24779943
80	0xbd8451bf	-0.06460904
81	0x3e52730e	0.20551702
82	0xbf0386dd	-0.5137766
83	0x3df671f0	0.120334506
84	0x3d99fb06	0.07518582
85	0x3e528e08	0.20561993
86	0xbdf40133	-0.11914291
87	0x3dca7618	0.09885806
88	0xb9fdbc8e	-0.00048396405
89	0xbe4f6e44	-0.20256907
90	0xbd4d376d	-0.050101686
91	0xbeb7b721	-0.35881904
92	0xbd1db521	-0.038502816
93	0x3e74fd84	0.23924834
94	0x3df0f3db	0.11765262
95	0x3e312e19	0.17302741
96	0x3efa476d	0.4888262
97	0x3eba7553	0.36417636
98	0x3e411f7b	0.18859665
99	0xbe4a358c	-0.19746989
100	0x3c5f580c	0.013631832
101	0xbd6a6879	-0.05722854
102	0xbdc402d5	-0.09570853
103	0x3e944c89	0.28964642
104	0xbbd19581	-0.006395996
105	0x3e309675	0.17244895
106	0x3d2bc2aa	0.041933693
107	0x3e8fb175	0.28065076
108	0x3ecffbc2	0.40621763
109	0xbdad17fa	-0.08451839
110	0x3e0fa54a	0.14027897
111	0x3e83d2e4	0.25746834
112	0xbe3232d9	-0.1740221
113	0x3e74f226	0.23920497
114	0x3e0eef7c	0.13958544
115	0x3d3ed362	0.04658831
116	0xbd2ba234	-0.041902736
117	0x3ec584d9	0.38577917
118	0x3dca58e2	0.09880234
119	0x3ddf8e2d	0.1091579
120	0xbec4ddf2	-0.3845058
121	0xbdb4ef5d	-0.088347174
122	0xbdd2ba5a	-0.1028945
123	0x3e58ddaa	0.21178308
124	0xbdb4aa41	-0.08821536
125	0x3ce516c3	0.027964955
126	0x3e9d76d0	0.3075471
127	0x3d5647aa	0.052314438
128	0x3eefbc6f	0.4682345
129	0x3e62125e	0.22077319
130	0x3d4dae26	0.05021491
131	0x3ec0aa2c	0.3762983
132	0x3e101435	0.14070208
133	0x3e6611f5	0.22467788
134	0x3ee686ee	0.45024818
135	0xbba305b7	-0.0049750465
136	0x3dc475cc	0.095927805
137	0x3deeed02	0.116662994
138	0xbe4d209e	-0.20031974
139	0x3e8d681a	0.27618486
140	0x3df6c0dc	0.12048504
141	0xbec21393	-0.3790556
142	0xbd985c66	-0.074394986
143	0x3e47d0c9	0.19513239
144	0x3e5a50c0	0.21319866
145	0x3e29ef52	0.165952
146	0xbeb6ca1f	-0.3570108
147	0xbb5510cc	-0.0032511232
148	0x3e08b616	0.1335071
149	0x3e3474ca	0.17622676
150	0xbe7a8f6c	-0.24468774
151	0x3cc67043	0.024223452
152	0xbe5ff932	-0.21872404
153	0xbe07294c	-0.13199347
154	0xbdb2efab	-0.08737119
155	0xbe93fa19	-0.28901747
156	0x3e897586	0.26847476
157	0x3ec29554	0.38004553
158	0x3da86dbd	0.08224056
159	0xbae9eed3	-0.0017847664
160	0xbedca906	-0.43097705
161	0x3e94b20a	0.29042083
162	0x3e742669	0.23842777
163	0x3e584e3f	0.21123599
164	0x3e527bbb	0.20555012
165	0xbe6b1cff	-0.2296028
166	0xbe455e7c	-0.19274324
167	0xbdebc10c	-0.1151143
168	0xbeca1dcd	-0.3947586
169	0x3e20b0c8	0.15692437
170	0x3e0d016b	0.13770072
171	0x3e637ccc	0.22215575
172	0x3e7227f0	0.23648047
173	0xbe261387	-0.16218387
174	0x3e08246e	0.13295147
175	0x3ed9d602	0.42546088
176	0x3d4545a7	0.04816213
177	0xbe0f2f8c	-0.13982981
178	0x3e98e58e	0.29862636
179	0x3e6c7c0c	0.23094195
180	0x3df2310f	0.118257634
181	0xbde878ee	-0.113511905
182	0x3e1f274f	0.15542339
183	0x3e1be628	0.15224516
184	0xbe9ae7fa	-0.3025511
185	0xbe65380b	-0.2238466
186	0x3e0ea7ca	0.13931194
187	0xbd1b6d86	-0.037946247
188	0xbe6c8b93	-0.23100118
189	0x3d1f9b28	0.038966328
190	0x3ca840b3	0.020538663
191	0xbe381c7f	-0.1797962
192	0xbd8080e3	-0.06274583
193	0x3e4fdb05	0.20298393
194	0xbde004cf	-0.10938417
195	0xbe29d9f3	-0.16587047
196	0x3dbdb5a6	0.09263162
197	0x3e61edf3	0.22063427
198	0x3e335bd8	0.17515504
199	0x3dd56485	0.10419563
200	0x3e4fc875	0.20291312
201	0x3e0c23ea	0.13685575
202	0x3c627240	0.013821185
203	0xbea3af0f	-0.31969497
204	0x3e2e5f75	0.17028601
205	0xbe5e80f6	-0.21728882
206	0x3d513e27	0.051084664
207	0x3ddc9502	0.107706085
208	0x3e5e8e77	0.21734034
209	0x3ea5ef31	0.3240905
210	0x3dd8ab5b	0.105795585
211	0x3d8227cd	0.06355248
212	0x3c4e6b14	0.012598772
213	0x3e653d10	0.22386575
214	0xbe4a7ed4	-0.19774944
215	0x3d66cc19	0.056346986
216	0x3ef861a6	0.48512
217	0xbeaf5dbf	-0.3425121
218	0xbe89c2f4	-0.2690655
219	0x3b0c42e1	0.0021402168
220	0x3e934c83	0.2876931
221	0x3da4ff54	0.080565125
222	0xbeb0609f	-0.34448716
223	0x3d91eb5a	0.07124968
224	0xbcd43752	-0.025905285
225	0x3f067cef	0.52534384
226	0x3db005c8	0.08594853
227	0x3e748f7e	0.23882863
228	0xbde8b264	-0.1136215
229	0x3c55dce1	0.01305315
230	0x3d8ac140	0.06775141
231	0x3ea9b036	0.3314225
232	0xbf06450c	-0.5244911
233	0x3e324397	0.17408596
234	0x3e072cab	0.13200633
235	0xbea5ca27	-0.32380792
236	0x3f19598a	0.5990225
237	0xbe3eca77	-0.18631922
238	0x3de7e401	0.11322785
239	0x3d8c2072	0.06842126
240	0xbd32d39e	-0.043658845
241	0xbdad5219	-0.084629245
242	0x3ef4c54f	0.47806785
243	0x3de6fea8	0.112790406
244	0x3e2a6a90	0.16642213
245	0x3f0c95e1	0.549162
246	0x3cdc91d5	0.026925007
247	0x3e4bdaae	0.19907638
248	0xbea46046	-0.321047
249	0xbde9d34f	-0.11417257
250	0xbecdb418	-0.40176463
251	0xbdb61eda	-0.08892603
252	0x3d0eeec0	0.03489566
253	0x3dc19124	0.094515115
254	0x3eb3a3a7	0.35085794
255	0xbb8aa369	-0.004230906

fc3.bias f4 [4]
0	0x3e87472b	0.26421484
1	0x3e6d1d16	0.23155627
2	0x3e0e16bf	0.13875864
3	0x3e2a34f5	0.16621764
